Model: "ASPP-UNet"
__________________________________________________________________________________________________
Layer (type)                    Output Shape         Param #     Connected to                     
==================================================================================================
input_1 (InputLayer)            [(None, 512, 512, 3) 0                                            
__________________________________________________________________________________________________
conv2d (Conv2D)                 (None, 512, 512, 16) 448         input_1[0][0]                    
__________________________________________________________________________________________________
leaky_re_lu (LeakyReLU)         (None, 512, 512, 16) 0           conv2d[0][0]                     
__________________________________________________________________________________________________
conv2d_1 (Conv2D)               (None, 512, 512, 16) 2320        leaky_re_lu[0][0]                
__________________________________________________________________________________________________
leaky_re_lu_1 (LeakyReLU)       (None, 512, 512, 16) 0           conv2d_1[0][0]                   
__________________________________________________________________________________________________
max_pooling2d (MaxPooling2D)    (None, 256, 256, 16) 0           leaky_re_lu_1[0][0]              
__________________________________________________________________________________________________
conv2d_2 (Conv2D)               (None, 256, 256, 32) 4640        max_pooling2d[0][0]              
__________________________________________________________________________________________________
leaky_re_lu_2 (LeakyReLU)       (None, 256, 256, 32) 0           conv2d_2[0][0]                   
__________________________________________________________________________________________________
conv2d_3 (Conv2D)               (None, 256, 256, 32) 9248        leaky_re_lu_2[0][0]              
__________________________________________________________________________________________________
leaky_re_lu_3 (LeakyReLU)       (None, 256, 256, 32) 0           conv2d_3[0][0]                   
__________________________________________________________________________________________________
max_pooling2d_1 (MaxPooling2D)  (None, 128, 128, 32) 0           leaky_re_lu_3[0][0]              
__________________________________________________________________________________________________
conv2d_4 (Conv2D)               (None, 128, 128, 64) 18496       max_pooling2d_1[0][0]            
__________________________________________________________________________________________________
leaky_re_lu_4 (LeakyReLU)       (None, 128, 128, 64) 0           conv2d_4[0][0]                   
__________________________________________________________________________________________________
conv2d_5 (Conv2D)               (None, 128, 128, 64) 36928       leaky_re_lu_4[0][0]              
__________________________________________________________________________________________________
leaky_re_lu_5 (LeakyReLU)       (None, 128, 128, 64) 0           conv2d_5[0][0]                   
__________________________________________________________________________________________________
max_pooling2d_2 (MaxPooling2D)  (None, 64, 64, 64)   0           leaky_re_lu_5[0][0]              
__________________________________________________________________________________________________
conv2d_6 (Conv2D)               (None, 64, 64, 128)  73856       max_pooling2d_2[0][0]            
__________________________________________________________________________________________________
leaky_re_lu_6 (LeakyReLU)       (None, 64, 64, 128)  0           conv2d_6[0][0]                   
__________________________________________________________________________________________________
conv2d_7 (Conv2D)               (None, 64, 64, 128)  147584      leaky_re_lu_6[0][0]              
__________________________________________________________________________________________________
leaky_re_lu_7 (LeakyReLU)       (None, 64, 64, 128)  0           conv2d_7[0][0]                   
__________________________________________________________________________________________________
max_pooling2d_3 (MaxPooling2D)  (None, 32, 32, 128)  0           leaky_re_lu_7[0][0]              
__________________________________________________________________________________________________
conv2d_8 (Conv2D)               (None, 32, 32, 256)  295168      max_pooling2d_3[0][0]            
__________________________________________________________________________________________________
leaky_re_lu_8 (LeakyReLU)       (None, 32, 32, 256)  0           conv2d_8[0][0]                   
__________________________________________________________________________________________________
conv2d_9 (Conv2D)               (None, 32, 32, 256)  590080      leaky_re_lu_8[0][0]              
__________________________________________________________________________________________________
leaky_re_lu_9 (LeakyReLU)       (None, 32, 32, 256)  0           conv2d_9[0][0]                   
__________________________________________________________________________________________________
global_average_pooling2d (Globa (None, 256)          0           leaky_re_lu_9[0][0]              
__________________________________________________________________________________________________
depthwise_conv2d (DepthwiseConv (None, 32, 32, 256)  2304        leaky_re_lu_9[0][0]              
__________________________________________________________________________________________________
depthwise_conv2d_1 (DepthwiseCo (None, 32, 32, 256)  2304        leaky_re_lu_9[0][0]              
__________________________________________________________________________________________________
depthwise_conv2d_2 (DepthwiseCo (None, 32, 32, 256)  2304        leaky_re_lu_9[0][0]              
__________________________________________________________________________________________________
reshape (Reshape)               (None, 1, 1, 256)    0           global_average_pooling2d[0][0]   
__________________________________________________________________________________________________
leaky_re_lu_11 (LeakyReLU)      (None, 32, 32, 256)  0           depthwise_conv2d[0][0]           
__________________________________________________________________________________________________
leaky_re_lu_13 (LeakyReLU)      (None, 32, 32, 256)  0           depthwise_conv2d_1[0][0]         
__________________________________________________________________________________________________
leaky_re_lu_15 (LeakyReLU)      (None, 32, 32, 256)  0           depthwise_conv2d_2[0][0]         
__________________________________________________________________________________________________
conv2d_14 (Conv2D)              (None, 1, 1, 256)    65792       reshape[0][0]                    
__________________________________________________________________________________________________
conv2d_10 (Conv2D)              (None, 32, 32, 256)  65792       leaky_re_lu_9[0][0]              
__________________________________________________________________________________________________
conv2d_11 (Conv2D)              (None, 32, 32, 256)  65536       leaky_re_lu_11[0][0]             
__________________________________________________________________________________________________
conv2d_12 (Conv2D)              (None, 32, 32, 256)  65536       leaky_re_lu_13[0][0]             
__________________________________________________________________________________________________
conv2d_13 (Conv2D)              (None, 32, 32, 256)  65536       leaky_re_lu_15[0][0]             
__________________________________________________________________________________________________
leaky_re_lu_17 (LeakyReLU)      (None, 1, 1, 256)    0           conv2d_14[0][0]                  
__________________________________________________________________________________________________
leaky_re_lu_10 (LeakyReLU)      (None, 32, 32, 256)  0           conv2d_10[0][0]                  
__________________________________________________________________________________________________
leaky_re_lu_12 (LeakyReLU)      (None, 32, 32, 256)  0           conv2d_11[0][0]                  
__________________________________________________________________________________________________
leaky_re_lu_14 (LeakyReLU)      (None, 32, 32, 256)  0           conv2d_12[0][0]                  
__________________________________________________________________________________________________
leaky_re_lu_16 (LeakyReLU)      (None, 32, 32, 256)  0           conv2d_13[0][0]                  
__________________________________________________________________________________________________
up_sampling2d (UpSampling2D)    (None, 32, 32, 256)  0           leaky_re_lu_17[0][0]             
__________________________________________________________________________________________________
concatenate (Concatenate)       (None, 32, 32, 1280) 0           leaky_re_lu_10[0][0]             
                                                                 leaky_re_lu_12[0][0]             
                                                                 leaky_re_lu_14[0][0]             
                                                                 leaky_re_lu_16[0][0]             
                                                                 up_sampling2d[0][0]              
__________________________________________________________________________________________________
conv2d_15 (Conv2D)              (None, 32, 32, 256)  327936      concatenate[0][0]                
__________________________________________________________________________________________________
leaky_re_lu_18 (LeakyReLU)      (None, 32, 32, 256)  0           conv2d_15[0][0]                  
__________________________________________________________________________________________________
conv2d_transpose (Conv2DTranspo (None, 64, 64, 128)  131200      leaky_re_lu_18[0][0]             
__________________________________________________________________________________________________
concatenate_1 (Concatenate)     (None, 64, 64, 256)  0           conv2d_transpose[0][0]           
                                                                 leaky_re_lu_7[0][0]              
__________________________________________________________________________________________________
conv2d_16 (Conv2D)              (None, 64, 64, 128)  295040      concatenate_1[0][0]              
__________________________________________________________________________________________________
leaky_re_lu_19 (LeakyReLU)      (None, 64, 64, 128)  0           conv2d_16[0][0]                  
__________________________________________________________________________________________________
conv2d_17 (Conv2D)              (None, 64, 64, 128)  147584      leaky_re_lu_19[0][0]             
__________________________________________________________________________________________________
leaky_re_lu_20 (LeakyReLU)      (None, 64, 64, 128)  0           conv2d_17[0][0]                  
__________________________________________________________________________________________________
conv2d_transpose_1 (Conv2DTrans (None, 128, 128, 64) 32832       leaky_re_lu_20[0][0]             
__________________________________________________________________________________________________
concatenate_2 (Concatenate)     (None, 128, 128, 128 0           conv2d_transpose_1[0][0]         
                                                                 leaky_re_lu_5[0][0]              
__________________________________________________________________________________________________
conv2d_18 (Conv2D)              (None, 128, 128, 64) 73792       concatenate_2[0][0]              
__________________________________________________________________________________________________
leaky_re_lu_21 (LeakyReLU)      (None, 128, 128, 64) 0           conv2d_18[0][0]                  
__________________________________________________________________________________________________
conv2d_19 (Conv2D)              (None, 128, 128, 64) 36928       leaky_re_lu_21[0][0]             
__________________________________________________________________________________________________
leaky_re_lu_22 (LeakyReLU)      (None, 128, 128, 64) 0           conv2d_19[0][0]                  
__________________________________________________________________________________________________
conv2d_transpose_2 (Conv2DTrans (None, 256, 256, 32) 8224        leaky_re_lu_22[0][0]             
__________________________________________________________________________________________________
concatenate_3 (Concatenate)     (None, 256, 256, 64) 0           conv2d_transpose_2[0][0]         
                                                                 leaky_re_lu_3[0][0]              
__________________________________________________________________________________________________
conv2d_20 (Conv2D)              (None, 256, 256, 32) 18464       concatenate_3[0][0]              
__________________________________________________________________________________________________
leaky_re_lu_23 (LeakyReLU)      (None, 256, 256, 32) 0           conv2d_20[0][0]                  
__________________________________________________________________________________________________
conv2d_21 (Conv2D)              (None, 256, 256, 32) 9248        leaky_re_lu_23[0][0]             
__________________________________________________________________________________________________
leaky_re_lu_24 (LeakyReLU)      (None, 256, 256, 32) 0           conv2d_21[0][0]                  
__________________________________________________________________________________________________
conv2d_transpose_3 (Conv2DTrans (None, 512, 512, 16) 2064        leaky_re_lu_24[0][0]             
__________________________________________________________________________________________________
concatenate_4 (Concatenate)     (None, 512, 512, 32) 0           conv2d_transpose_3[0][0]         
                                                                 leaky_re_lu_1[0][0]              
__________________________________________________________________________________________________
conv2d_22 (Conv2D)              (None, 512, 512, 16) 4624        concatenate_4[0][0]              
__________________________________________________________________________________________________
leaky_re_lu_25 (LeakyReLU)      (None, 512, 512, 16) 0           conv2d_22[0][0]                  
__________________________________________________________________________________________________
conv2d_23 (Conv2D)              (None, 512, 512, 16) 2320        leaky_re_lu_25[0][0]             
__________________________________________________________________________________________________
leaky_re_lu_26 (LeakyReLU)      (None, 512, 512, 16) 0           conv2d_23[0][0]                  
__________________________________________________________________________________________________
conv2d_24 (Conv2D)              (None, 512, 512, 1)  17          leaky_re_lu_26[0][0]             
__________________________________________________________________________________________________
leaky_re_lu_27 (LeakyReLU)      (None, 512, 512, 1)  0           conv2d_24[0][0]                  
__________________________________________________________________________________________________
reshape_1 (Reshape)             (None, 512, 512)     0           leaky_re_lu_27[0][0]             
==================================================================================================
Total params: 2,604,145
Trainable params: 2,604,145
Non-trainable params: 0
__________________________________________________________________________________________________
Load image files into memory.
